Homework/HW5/model.pt (torch, 1247 bytes, 2 tensors)

0.weight f4 [3, 13]
000000 25 37 15 be 89 d6 81 3e 5d ae 86 be 22 88 4e be
       -0.14571817 0.2535899 -0.26304904 -0.20169118
000010 1c 5e 52 be b8 69 9b 3d 18 a4 00 3d 23 7f 80 3e
       -0.20543712 0.075885236 0.031406492 0.25096998
000020 70 e9 25 3d 0e 89 43 3e 5c ef b4 bd 61 37 44 be
       0.040505826 0.19095251 -0.08834717 -0.1916175
000030 a8 59 39 3d 83 2f 7c be fa 51 24 be 6a 88 2f 3e
       0.04525152 -0.246275 -0.16046897 0.17141882
000040 08 2c 23 3d 68 89 01 bd f9 0c 86 be b0 41 09 bd
       0.039836913 -0.03162518 -0.26181772 -0.03350991
000050 54 9c e9 bd 2c c2 1b bd bc bf c0 3d 12 6f 08 3e
       -0.1140677 -0.038026974 0.094115704 0.1332362
000060 d4 b3 08 be 80 87 71 bb 94 8e 4c 3e cc 8c 43 bd
       -0.13349849 -0.0036854446 0.19976264 -0.047741696
000070 04 7b 25 bd 38 0e cc bd f6 42 2c 3e 5c b9 c3 3d
       -0.04040052 -0.099636495 0.16822419 0.09556839
000080 d8 f4 84 be 74 2d 31 bd 5c d1 85 3d 30 7b fe 3d
       -0.2596805 -0.043256238 0.06534073 0.1242584
000090 2c a1 3f be 45 4f 1a be c0 ef e2 3d
       -0.18713826 -0.15069301 0.11080885

0.bias f4 [3]
000000 00 b1 67 3c ce 11 40 3e 30 1f b1 bd
       0.014141321 0.18756792 -0.08648527
